deep_Q_learning/model_backup/pytorch_1689236200.pt (torch, 116123 bytes, 36 tensors)

emb.weight f4 [500, 6]
000000 3b 27 d4 3e a2 0f 2a bf a4 29 21 bf 17 8c 07 c0
       0.4143618 -0.66430104 -0.62954164 -2.1179254
000010 86 a2 cc bf c4 26 19 bf e9 8c e1 bf 1b d8 01 bf
       -1.5987098 -0.59824777 -1.7621127 -0.50720376
000020 d4 53 55 3f 87 e8 9d 3e 5d dd cb bf 29 f6 bd be
       0.83331037 0.30841467 -1.592693 -0.37101868
000030 10 ad 04 c0 05 b7 19 bf 1c f7 6c 3f 87 49 cf be
       -2.073063 -0.6004489 0.9256456 -0.40485784
000040 bd 20 25 c0 ca ec af 3e dc 47 18 3f 37 da fb bf
       -2.5801232 0.34360343 0.5948465 -1.9675969
000050 3b b1 95 bf 2d 5b 40 3f 32 d4 63 bf e7 db 05 bf
       -1.1694711 0.75139123 -0.8899566 -0.5228867
000060 21 db 3e 3e 11 c6 6d bd 1e 22 55 3f 2b 51 24 be
       0.18638279 -0.05805022 0.83255184 -0.16046588
000070 b6 42 c5 3f 44 15 79 bc cb 73 18 40 1b 77 cb 3f
       1.5410984 -0.015202824 2.3820674 1.5895723
000080 19 43 63 bf bb e8 8b bd 0d bb 68 bf f5 a4 11 3c
       -0.8877426 -0.06831499 -0.90910417 0.0088894265
000090 a6 fa 5a 3f ef c1 2c 3f 7f 59 48 be 2e f4 ba be
       0.8553871 0.6748342 -0.1956539 -0.3651442
0000a0 e5 e1 47 be 72 df 78 3f 42 72 37 3e 14 d3 35 3f
       -0.19519766 0.9721595 0.1791468 0.71025205
0000b0 9c f7 a3 be 3d 10 85 3e 52 12 53 be 38 85 0c be
       -0.32024848 0.2598895 -0.20612457 -0.13722694
0000c0 76 5f 6f bf e5 d4 d3 bd b8 c4 9c 3f ab ee 49 3f
       -0.93505037 -0.10343341 1.2247534 0.78879803
0000d0 a5 2c a7 3e ba c0 3d bf 66 d4 4e bf ab 82 66 be
       0.3265125 -0.741222 -0.80792844 -0.22510783
0000e0 02 8e 41 bf 63 50 8e 3e c7 9f bf bc c5 8f de bf
       -0.7560731 0.27795705 -0.023391617 -1.7387625
0000f0 81 45 02 c0 39 3e 9c 3e d3 1e 0f c0 95 8f 34 bf
       -2.0354922 0.30516222 -2.2362564 -0.7053159
000100 c1 0e 7b bf 5e 3f af be f4 d7 bc 3f f6 b5 44 bd
       -0.9806939 -0.34228033 1.4753404 -0.048025094
000110 0b 42 52 be 22 b3 95 3e 93 8d 0e 3f 9d 64 e3 3e
       -0.20533006 0.2923823 0.55684775 0.444127
000120 a1 fb cc 3e 88 a6 81 3f 9c 66 98 3f c8 7d 8d 3e
       0.40035728 1.0128946 1.1906314 0.27635026
000130 ce 77 08 3f b8 bd af be f2 36 2c bf 3c 91 b6 3e
       0.5330781 -0.3432443 -0.6727134 0.3565768
000140 46 cb 7f bf 1a ae 18 3e 69 69 28 3e 10 f2 84 3f
       -0.99919546 0.14910164 0.16446461 1.0386372
000150 98 55 2a bf ba b2 c3 bf 40 97 d1 3e ed 4b 18 3e
       -0.66536856 -1.5288918 0.40935707 0.14872713
000160 ca ee 32 bd 76 a2 d8 bf 58 dd fe 3e 0a 40 55 bf
       -0.04368476 -1.6924579 0.49778247 -0.8330084
000170 58 99 32 bf ce 2f 88 bf 0d 21 2f 3f 06 71 2a bf
       -0.69765234 -1.0639589 0.68409806 -0.6657871
000180 4d 05 09 c0 be 64 89 3f e8 2a 0b 3f 6d a2 40 40
       -2.1409485 1.0733869 0.54362345 3.0099137
000190 68 c8 9a 3f e0 7a 98 3f ad fc e5 3f f1 00 a2 bf
       1.2092409 1.1912498 1.7967736 -1.2656537
0001a0 4d 57 b3 3f 5e d2 a2 be cc e8 21 3e 93 17 88 3f
       1.4011017 -0.31801122 0.15811461 1.0632194
0001b0 90 b7 19 c0 6c 03 ce 3f 6d 47 b5 3e 29 07 d1 3f
       -2.4018288 1.6094794 0.35406056 1.633031
0001c0 03 aa d8 bd 94 63 65 3e 8c bc c2 3f 99 57 95 be
       -0.10579302 0.22401267 1.521379 -0.29168394
0001d0 8b e9 18 3f 30 f2 18 bf 17 6b b4 bf a3 79 cb 3f
       0.5973136 -0.5974455 -1.4095181 1.5896496
0001e0 f7 f2 2b bf 51 b3 ac 3e 79 28 51 3f 1a 9f 6e bf
       -0.6716761 0.33730558 0.8170238 -0.9321152
0001f0 db f4 02 bf 53 65 9b be 60 30 ad 3e e0 f2 86 3e
       -0.5115487 -0.30350742 0.3382597 0.26357174
000200 60 6f 70 bf 1a a8 01 bf b2 6c 55 be 9b f7 c2 3f
       -0.93919945 -0.5064713 -0.20842245 1.5231813
000210 5c 2d a0 3e d3 ba 00 bf af 65 c8 bf a7 70 cc 3c
       0.31284606 -0.5028507 -1.5656031 0.02495606
000220 11 1a a9 3e 79 bd d1 3f c5 0e 5e 3f 3a c2 16 bf
       0.330277 1.6385947 0.86741287 -0.58890116
000230 c6 b1 f5 bd 00 e6 9f 3d 78 2e 02 3f ad 21 fc 3e
       -0.11996798 0.07807541 0.50852156 0.49244443
000240 cf 8a a2 3f 90 58 2f 3f 2f 4b 4a bf 22 41 ee be
       1.2698611 0.6849451 -0.7902097 -0.46534067
000250 c3 5f 1d 3e 04 59 8b bf 71 aa e5 3f a9 a6 09 c0
       0.15368561 -1.088654 1.794264 -2.1507971
000260 5d 8c 9e 3e 13 2d f2 3f 6e 92 71 3f ba 11 72 3f
       0.30966464 1.8920006 0.9436406 0.945583
000270 9a bd 6f 3f 0c b8 54 3f ce 06 a1 bd ee ef b3 be
       0.93648684 0.83093333 -0.07862626 -0.3514399
000280 53 bd 72 be 5a ef 61 3f ca de 96 be 4f cf 52 3d
       -0.23705034 0.88255847 -0.2946685 0.051467236
000290 d2 8d 87 bf d1 3b 16 bf 1f 83 17 bf e9 2a 5f bf
       -1.0590155 -0.5868502 -0.5918445 -0.8717485
0002a0 ac bb e0 be 68 23 6a 3f d3 71 3b 3f ef 23 08 bf
       -0.43893182 0.91460276 0.73220557 -0.5317983
0002b0 0d d0 01 3e 3b 20 a9 be d3 bf 23 3f 83 9b 93 3f
       0.12677021 -0.33032402 0.63964576 1.1531833
0002c0 61 84 cc 3d 40 44 c2 3e 4d 66 8a be fa 0a 89 3f
       0.09986187 0.37942696 -0.27031174 1.0706475
0002d0 86 2d f8 bf 08 ff c7 be e3 e8 ee be d9 ab a8 3f
       -1.9388893 -0.3906176 -0.46662053 1.3177444
0002e0 dd 98 2e 3f f7 7c c5 be 83 f8 f1 bf 07 9d a9 bb
       0.68202 -0.38571903 -1.8903965 -0.00517619
0002f0 33 d0 5e be b8 98 ab bd 37 94 8f 3d 72 97 88 bf
       -0.21759109 -0.08378738 0.070106916 -1.0671217
000300 0e 05 b6 3d 7b 74 a5 3f 55 26 9d 3f b0 c3 b1 3e
       0.08887683 1.2926172 1.2277323 0.3471961
000310 e5 b4 ab 3f bf 0e 6f 3f 2a c9 92 bf df 72 50 bf
       1.341458 0.93381876 -1.146764 -0.8142528
000320 96 b3 94 be c5 b7 28 bf 43 fb 67 3e de b0 87 bf
       -0.29043263 -0.6590541 0.22654442 -1.060085
000330 5d 02 0c bf d7 00 3e 3f dc c1 71 bf 09 f5 30 be
       -0.54691106 0.7422003 -0.9443643 -0.17280973
000340 62 16 9c bd b9 29 f1 3f b7 bc cf 3f 6c 3f a5 be
       -0.07621457 1.8840858 1.6229466 -0.3227495
000350 7c 8d 4e be b2 73 72 3f 3a 64 67 bf 22 d5 a9 be
       -0.2017116 0.9470779 -0.9038731 -0.3317042
000360 62 af b5 be 4f 62 c9 bd 9f 6f 9b bf c4 00 cd 3f
       -0.3548537 -0.09833204 -1.2143439 1.6015859
000370 a0 09 86 3f 19 87 30 bc b3 50 ee bd 0e 84 31 3f
       1.0471687 -0.010774397 -0.11636486 0.69342124
000380 5f d6 ee 3e af 27 f5 be 1a 06 d3 3e b7 ea ac 3f
       0.46647927 -0.4788184 0.41215593 1.3509129
000390 7f 85 a6 3f f2 20 e0 3e 4b 3d 52 bf be 1a 24 bf
       1.300949 0.43775135 -0.82124776 -0.64103305
0003a0 5b cd 76 bf 4f 15 a3 3e 58 e9 1f 3e d7 0b aa 3f
       -0.964071 0.31852195 0.15616357 1.3284863
0003b0 86 fb d1 bf 0c 0d c3 3f cd e2 92 bf 0d c2 22 bf
       -1.6404884 1.5238357 -1.1475464 -0.6357735
0003c0 ac b9 09 40 2c 5f 18 40 f5 b1 e2 3f a8 4d cd 3f
       2.1519575 2.3808088 1.7710558 1.6039324
0003d0 27 ae 87 bf dd 58 d5 be 73 43 8e bf 76 17 d3 bf
       -1.0600022 -0.4166936 -1.1114334 -1.6491535
0003e0 44 c2 14 be 9c f9 7e 3e 4d 00 f6 3e a2 f2 30 bf
       -0.14527231 0.24899906 0.48047104 -0.6912023
0003f0 5e ec a9 3f 03 3c 6f bd a5 5b 8a be f1 f6 ae 3f
       1.3275259 -0.05840684 -0.27023044 1.366911

l1.weight f4 [50, 6]
000000 f3 ff d3 be 00 d5 7d be 90 ec 07 3f c2 cb 63 3d
       -0.4140621 -0.24788284 0.5309534 0.05561424
000010 83 9c 54 3e 17 0d ff 3e 26 5b b8 3e eb 0f c1 be
       0.2076283 0.49814674 0.3600704 -0.37707457
000020 c4 00 cc be 0a c3 a7 3d 6a bc de bd 57 be b9 3e
       -0.39844334 0.081914976 -0.10875781 0.3627803
000030 71 74 d8 3e 2e 0a fe 3d 2b f4 f6 3c ee 61 c0 bb
       0.42276338 0.12404285 0.030145725 -0.005871049
000040 00 98 49 be 1a d1 62 be 03 57 e4 3d f2 9d 16 3e
       -0.1968689 -0.22150078 0.11149409 0.14708689
000050 46 15 fa be 1c db 95 3f ff df 4d 3f 97 04 23 bf
       -0.48844355 1.1707492 0.80419916 -0.6367888
000060 a8 97 51 bc 92 83 26 bf 93 6a a2 be 45 57 a2 bf
       -0.012792505 -0.6504451 -0.31721935 -1.2682883
000070 7d 72 9e be 1e 0f 9a 3d 02 ec 19 3c ff b2 ad be
       -0.30946723 0.075224146 0.009394648 -0.33925626
000080 c7 81 e8 3e b8 22 5d bf 98 1e 1f bf 05 dd a1 3e
       0.45411512 -0.863811 -0.6215606 0.31613937
000090 59 c3 ed 3e 4e 7c e5 be a5 d8 6d bf 6d 7e 7c 3e
       0.464381 -0.448214 -0.929087 0.24657603
0000a0 79 e6 39 3e 24 a9 c4 3d d8 7e 05 3f 3a ed 42 be
       0.18154325 0.096025735 0.52146673 -0.19035807
0000b0 7b 9e 0a 3d 2a 03 1b be 55 62 71 3e fa 0f 22 be
       0.033842545 -0.15137926 0.23572667 -0.15826407
0000c0 2d fc 8a bd 61 a2 ab be 80 c4 ae 3e c3 2d e0 3d
       -0.0678638 -0.33522323 0.34134293 0.10946228
0000d0 b0 b3 e9 bd ba 46 aa 3e b8 93 05 bc 23 bf 81 be
       -0.11411226 0.33257085 -0.008152895 -0.25341138
0000e0 5a b2 c2 bd 70 79 a9 3e 33 7b 0c 3f 2b ad 40 3d
       -0.09506674 0.33100462 0.5487549 0.047040146
0000f0 64 6f ac be a2 34 fc bd be 0f 25 3e e0 47 91 bf
       -0.33678734 -0.123147264 0.16119286 -1.135006
000100 3b 5e f7 be 04 cc aa bd af 48 9d 3e b2 2e 87 be
       -0.4831408 -0.08339694 0.30719516 -0.26402813
000110 0e 54 94 be e0 d8 7e 3e e6 a3 df be db a8 09 3f
       -0.2897038 0.24887419 -0.43679732 0.5377328
000120 2d 29 65 3f 7f 00 f8 bd 37 90 a7 bf 3d 2e 22 3f
       0.89515954 -0.121094696 -1.3090886 0.63351804
000130 ef ea 45 3e 87 6f 29 bf 79 a9 b1 3e e7 0e 29 3f
       0.19327901 -0.661858 0.3469961 0.66038364
000140 f5 ea ae be 1d 86 a3 3e 8b fb 3a 3e 95 87 a0 3e
       -0.34163633 0.31938258 0.18260019 0.3135344
000150 69 e7 bf 3e b2 76 c9 3e 27 f1 f7 be c5 cf 4a bf
       0.3748124 0.3934837 -0.48426172 -0.7922328
000160 53 26 0f 3f 0e 5e 69 be d8 84 76 bd 59 d4 0f bf
       0.55917853 -0.22789785 -0.060185283 -0.5618339
000170 be 0a 2e 3e d6 26 44 bf e4 08 10 3f 36 27 66 be
       0.16996285 -0.7662176 0.56263566 -0.22475895
000180 93 23 94 bd f1 d3 49 be 43 0f 2c 3f 29 52 6b 3e
       -0.07233348 -0.19709755 0.6721079 0.2298056
000190 5e 9b 20 bf c2 1e 1c 3f 0d 95 3d 3f 58 bf b4 3e
       -0.6273707 0.6098443 0.7405556 0.35302234
0001a0 84 20 93 3e 40 4d 4b bf 84 2f 7e be b0 36 31 bf
       0.28735745 -0.7941475 -0.24822813 -0.6922407
0001b0 74 e8 05 3f c2 9f 04 3f a0 3e 9b 3e 14 6f 95 bd
       0.5230782 0.5180627 0.30321217 -0.07296577
0001c0 ba df 6c 3e 01 fa eb bd ae 84 af bd b2 ee 6d bc
       0.2313222 -0.11522294 -0.085702285 -0.014522241
0001d0 17 98 ea 3e 16 d8 3f be 62 09 55 3f 04 75 6a 3d
       0.4581916 -0.18734774 0.8321744 0.0572405
0001e0 b9 c0 26 3c 0e 09 05 bf 42 3c 11 bf 00 42 cb 3d
       0.010177785 -0.5196694 -0.5673257 0.09924698
0001f0 ae c5 d7 3c 98 94 8d 3e 08 8b e4 3e 38 93 6d 3e
       0.026339378 0.2765243 0.44637322 0.23200691
000200 51 e2 dd 3d 1d aa 47 be 08 0e 1d bf 54 99 61 bf
       0.10834182 -0.19498487 -0.61349535 -0.88124585
000210 b8 aa 1c 3f 32 c5 13 bf 97 f7 79 3e 83 b7 90 3e
       0.61197996 -0.5772277 0.24410854 0.28265008
000220 c7 ef b1 3e c5 e0 0e 3f b4 62 7a be 08 4a d5 3e
       0.34753248 0.5581172 -0.24451715 0.41658044
000230 fc 9b df 3e 80 fa 2d bf 23 0e 4f bc a6 f7 e4 be
       0.43673694 -0.6796036 -0.012637648 -0.4472019
000240 c6 e4 09 bf c1 3e 0a 3f af 53 13 be 6d 50 bc 39
       -0.53864706 0.54002005 -0.14387392 0.00035918076
000250 fd 4a 02 3f dc ea d1 bd bd be 34 be 9b a3 36 3e
       0.50895673 -0.10249874 -0.17650886 0.17835848
000260 3c a0 74 be 00 5b f1 3d 21 c8 6b 3e 96 c2 58 ba
       -0.2388925 0.11784935 0.23025562 -0.00082687417
000270 2c 3e 9a be c2 08 00 3e a3 c7 4d bf 28 6a 88 3f
       -0.30125558 0.12503341 -0.80382746 1.0657396
000280 6c 28 f5 3e e0 47 8e be 4c 8d 03 3f f3 5d a9 be
       0.47882402 -0.2778921 0.51387477 -0.3307949
000290 a6 26 15 bf 80 16 a6 3e 36 34 b2 3e 1a c2 a8 3e
       -0.582621 0.3243904 0.3480546 0.32960588
0002a0 3a 8c f2 bb 37 da 3a 3f 6a c6 8a 3e d7 48 63 be
       -0.00740197 0.7298922 0.27104503 -0.22195755
0002b0 b5 3b 1b 3e 0c f4 ef 3e 6d 02 32 3f f0 7b 40 3c
       0.15159495 0.4686588 0.6953495 0.011748299
0002c0 d6 c5 b1 bf 4c 5f 6f 3f d8 54 83 3e d7 cd 97 be
       -1.38885 0.93504786 0.25650668 -0.2964923
0002d0 28 4e 95 bd d0 6c 76 3c 31 97 fe be a8 98 f9 bb
       -0.07290298 0.015040591 -0.49724725 -0.007617075
0002e0 54 8b 60 bd ba f7 29 be b3 eb 0e 3e 0a 6e 04 3d
       -0.054820374 -0.16598406 0.139571 0.032331504
0002f0 22 ff eb 3e cf a3 b8 bd e7 2a e7 3e ca 78 e1 be
       0.46093088 -0.09015619 0.4514992 -0.44037467
000300 3c cf 2f 3f c4 b5 19 3f f5 ec ea 3d 34 c8 0d be
       0.6867559 0.6004298 0.11470977 -0.13845903
000310 09 1d ad 3d cf ae d7 3e b0 65 31 3e 73 f9 25 bf
       0.08452804 0.42125556 0.17323947 -0.64833754
000320 25 77 84 be 68 2d af be b6 7f 17 3e c0 b1 27 bd
       -0.2587215 -0.3421433 0.14794812 -0.040941
000330 37 f2 00 bf ce b7 cf be 81 32 54 be c6 e5 95 be
       -0.5036959 -0.4056992 -0.2072239 -0.29276866
000340 3f 71 70 3e 49 c4 98 3e b3 8e de 3d 78 1b 0a bf
       0.234807 0.29837254 0.108670615 -0.53948164
000350 34 b7 3e bf 5b d6 3a bf e0 02 07 bf 5c b3 05 bf
       -0.74498296 -0.7298333 -0.5273876 -0.52226806
000360 5a 2b 97 be b8 c4 ac be 2b 6c 13 3f d8 68 87 3f
       -0.29525262 -0.33743834 0.57586926 1.0578871
000370 8a aa 42 be 08 b2 6a 3e 59 6b 00 3f d0 26 13 3f
       -0.19010368 0.22919476 0.501638 0.574811
000380 4e b9 1e be c6 6b cf 3e 0c 8b c3 3e 67 a9 43 bf
       -0.15500376 0.40511912 0.38192022 -0.7643036
000390 4e b3 67 3e 0a f5 01 bf 85 36 de be 38 e0 17 3d
       0.22626993 -0.50764525 -0.4340097 0.037079066
0003a0 bb 18 28 3e 6e 92 87 3e 05 98 f2 3e a7 11 19 bf
       0.16415684 0.26478904 0.47381607 -0.5979256
0003b0 67 55 b4 bd a5 d9 70 bf d3 d3 e8 3d 38 78 1f 3f
       -0.08805352 -0.940821 0.11368527 0.62292814
0003c0 c7 dc 37 bf 96 3f 5a be f6 c9 3c bf 0d a6 9d bd
       -0.71821254 -0.21313319 -0.7374567 -0.07697687
0003d0 68 5b 69 bf 08 e9 b7 bd e4 39 98 be 61 2b 03 3f
       -0.911551 -0.08979994 -0.29731667 0.51238066
0003e0 69 51 f3 3d 21 23 b2 bc c5 08 e4 be 36 27 00 3f
       0.11880762 -0.021745266 -0.4453794 0.5005983
0003f0 ca 34 c9 be 50 62 0e 3f 4b 1f de be a0 52 44 bd
       -0.39298087 0.5561876 -0.4338325 -0.04793036

l1.bias f4 [50]
000000 7e c1 0c 3f 4b b0 9a 3e f5 61 4c 3d 4c 6a ea be
       0.54982746 0.30212626 0.049898107 -0.45784223
000010 96 c0 89 be 81 8b f8 3e 0c 76 c8 be 9b da ac 3d
       -0.26904744 0.48543933 -0.39152563 0.08440133
000020 18 ed ee 3e 94 5e 3e 3e df ab 41 bc bf 17 0f be
       0.46665263 0.18590766 -0.011820762 -0.13973902
000030 a9 d5 18 be 3e 03 28 bf e0 d2 b2 be 57 63 c8 be
       -0.14925255 -0.6562995 -0.3492651 -0.3913829
000040 97 61 1a bf 31 7d 67 bf 8c 50 34 3e 0b 24 5f bf
       -0.6030516 -0.904254 0.17608851 -0.8716437
000050 a3 3d 7c 3e db 44 94 3d 3f 4a 17 bf 6e c4 d9 be
       0.24632888 0.07239696 -0.59097666 -0.42532676
000060 06 2d 81 3e c4 a9 81 3e 2f 39 82 be eb 08 7f bd
       0.25229663 0.25324833 -0.25434253 -0.062264364
000070 8c e1 e0 be 5d e6 3c be 3b b5 c5 3e b8 08 13 3e
       -0.4392208 -0.18447252 0.3861483 0.14358795
000080 f5 3f 7f bc 1c ad 0c 3e ce 80 2b be e6 2d 97 be
       -0.015579213 0.13737911 -0.16748354 -0.29527205
000090 ad ce b4 3e ff 44 2f bf 71 38 93 3e 91 e1 7e bd
       0.3531393 -0.68464655 0.28754 -0.062226836
0000a0 bb b1 ae be a0 ed 3e 3e bc d9 f3 be e6 ef 40 3e
       -0.34119973 0.18645334 -0.47627056 0.18841514
0000b0 7b 33 0b 3f c5 1b be 3e a3 38 81 bd 74 ea f6 be
       0.5437543 0.3713056 -0.06309631 -0.4822575
0000c0 e9 d8 aa be 35 ed 37 3e
       -0.33368614 0.17961581

l2.weight f4 [50, 50]
000000 ce b5 28 be 18 cb dd 3e 3e f5 61 3e f0 bc 93 be
       -0.16475603 0.4331901 0.22066209 -0.28855085
000010 1a 24 e5 3e 84 4d e1 3d df 80 87 bf b2 f0 16 3e
       0.44754106 0.11001113 -1.0586203 0.14740255
000020 42 d7 54 3d 37 cf fb 3d f1 4b ee 3d a0 64 9b 3e
       0.0519631 0.122953825 0.116355784 0.30350208
000030 25 39 89 bf 52 1d 22 be 02 77 ed bf c2 1b f6 bd
       -1.0720564 -0.15831497 -1.8551943 -0.12017013
000040 18 0b 39 bf 55 96 a2 be a7 c8 83 3e 38 4e 8d bf
       -0.7228255 -0.3175532 0.25739023 -1.1039495
000050 57 00 45 3e 07 74 0d 3f c2 cb b5 bf 51 d9 01 3f
       0.19238411 0.5525517 -1.4202807 0.50722224
000060 10 6f d5 bd 39 91 60 3e 12 ed 04 be 5c 96 ba bd
       -0.10421574 0.21930398 -0.1298106 -0.0911071
000070 2c 18 b3 be c1 1f 5d bf f4 2c 81 3e d1 20 10 3e
       -0.3497938 -0.8637658 0.2522961 0.14075018
000080 86 4a f1 3e 1a db b5 3e 6e 5d 12 3e d5 1a a0 bd
       0.4712717 0.35518724 0.14293453 -0.07817618
000090 22 0a 83 3e a0 fb d2 3e d9 05 c9 3e 5a f4 1d 3f
       0.25593668 0.412076 0.39262274 0.61700976
0000a0 e3 75 9c 3e 0a 1b 96 be 50 5f 09 3e 00 f2 d0 3e
       0.3055869 -0.29317504 0.13415265 0.4080963
0000b0 47 43 06 3e 8d 6f 73 bf 02 45 76 bf f5 57 08 bc
       0.13111602 -0.9509209 -0.9619905 -0.008321752
0000c0 8a 45 70 3e 6e 8b f3 3e 39 3d 7d be 33 9e 68 3e
       0.23464027 0.47567314 -0.24730386 0.22716598
0000d0 8d ce b4 3c ac bd 38 bf f0 40 62 be 55 38 e6 be
       0.022071147 -0.72164416 -0.22095084 -0.44964853
0000e0 51 78 f3 be 66 8a 67 3e 47 0f ee bd 54 7c c3 bd
       -0.47552732 0.22611389 -0.11624008 -0.09545198
0000f0 b2 79 29 be f0 24 38 3e d8 85 b9 bd e6 ec ba 3d
       -0.1655033 0.1798284 -0.09058732 0.09127216
000100 76 ac 7a be 37 1e b2 3e 7b c4 88 3e 0a fb e6 bf
       -0.24479851 0.34788677 0.26712403 -1.8045361
000110 a3 d7 19 be 98 d8 9b 3d 96 9a b1 bc 55 e2 82 3e
       -0.15023665 0.07609671 -0.021680158 0.25563303
000120 cc 7d 2a 3e d3 25 87 be db 8f 2d 3d 4d f9 f3 ba
       0.1664955 -0.26396045 0.04237352 -0.0018613726
000130 ae 34 04 bf 53 76 54 3e 4f a2 b7 bd 39 9f 6b be
       -0.5164288 0.20748262 -0.08966505 -0.23009957
000140 a9 12 c5 bd 34 9c 3e 3e 55 e3 a9 3e 41 4b 10 3e
       -0.096227 0.18614274 0.33181253 0.14091207
000150 88 f7 03 3e ab 1c fc 3d 13 8a d9 be 18 a1 94 be
       0.12887394 0.123101555 -0.42488155 -0.29029155
000160 55 03 8c 3c df 0c 62 be 82 ba 0f 3f 39 5d ad bd
       0.017091433 -0.22075222 0.56143963 -0.084650464
000170 dc bf 2e 3f 5a b8 be 3e 57 d3 46 3c d5 11 fe be
       0.68261504 0.37250024 0.012135348 -0.4962298
000180 f4 4e 90 be cb b4 1c be 6b e9 0f 3f 4d 30 96 3e
       -0.28185236 -0.15303342 0.5621554 0.29333726
000190 65 a8 0a be 19 78 b2 bd 3a 8d 05 3b 18 0d 2b bf
       -0.135408 -0.08714313 0.0020378367 -0.66816854
0001a0 f3 0c af be bc 7e c0 be ae e6 80 bf 99 78 00 3d
       -0.34189567 -0.3759669 -1.0070398 0.03136501
0001b0 40 c7 c5 be d2 80 c7 3d 85 c9 8a be aa fd 73 be
       -0.38628578 0.097413674 -0.27106872 -0.23827234
0001c0 29 4c 98 be 28 c6 84 be 50 9a cd bd fa 14 79 3d
       -0.29745606 -0.2593243 -0.100391984 0.06081102
0001d0 8b b4 22 be 5f 70 cd bf 92 2a 7c 3e 09 89 c5 bd
       -0.15889184 -1.6049918 0.24625614 -0.09645278
0001e0 65 20 55 be 86 9e 92 3e c2 5a 99 3d d5 c9 50 3d
       -0.20813139 0.2863657 0.07488014 0.050973732
0001f0 04 4e ba 3d ef d4 82 3d ec eb 44 bf 2b 65 50 3e
       0.090969115 0.0638827 -0.7692249 0.20351093
000200 10 71 f0 bc 3a ce 33 bf 07 c8 fe bc 15 cd 3e 3e
       -0.029350787 -0.7023655 -0.03110124 0.1863292
000210 e4 c2 a5 3e d2 fb 5b bc 80 e5 a4 bd d4 4b bc bc
       0.32375252 -0.013426738 -0.08051586 -0.022985376
000220 be 73 0e bf d4 d5 30 bf a6 85 fe bd 1b dc c6 bd
       -0.5564536 -0.69076276 -0.12427835 -0.097099505
000230 9e a2 c7 3e bf 06 26 be a0 de e8 3e dc 75 7b 3e
       0.38991255 -0.16213511 0.4548235 0.24556679
000240 28 25 99 bd af bb 5c be f1 cc 41 bf c0 73 cc be
       -0.0747779 -0.2155597 -0.7570334 -0.3993206
000250 b6 1a ee 3e ff c2 35 3e 9e 19 76 be 23 8c 90 bc
       0.46504754 0.17750166 -0.2403321 -0.017644947
000260 0d df 00 be d1 cb cc be a8 cb 2a bf d6 9f ca be
       -0.12585087 -0.3999925 -0.66717005 -0.3957507
000270 5f 94 d0 be a6 c8 05 bd 91 f9 b2 be ea 4d 80 be
       -0.40738198 -0.032662056 -0.3495603 -0.25059444
000280 d5 1e 58 be ff d6 19 3e a3 e5 60 bd 29 63 12 bf
       -0.21105511 0.15023421 -0.0549065 -0.57182556
000290 d6 95 70 be 45 35 ec 3e 89 eb 72 3e 57 df de bf
       -0.23494658 0.4613439 0.23722662 -1.7411908
0002a0 5d dd b7 3c 16 6f 40 3d 9c 41 75 be 74 df 65 3e
       0.022444421 0.04698094 -0.23950809 0.22448522
0002b0 e4 1f a8 3e 89 8e 29 bd f9 85 5c 3d d7 1b 65 be
       0.3283683 -0.041395698 0.053838704 -0.22373901
0002c0 67 d8 67 bf 10 98 c6 3d c8 f3 5f 3d e5 c0 b6 be
       -0.9056458 0.09696972 0.054675847 -0.35694042
0002d0 78 91 eb bd 12 98 a3 3e 3f 74 ac 3e 9a 15 24 3d
       -0.11502355 0.31951958 0.3368244 0.040059663
0002e0 82 cd 66 be e8 77 34 be 0a 59 9b be e5 30 01 bf
       -0.22539333 -0.17623866 -0.3034137 -0.5046523
0002f0 63 d6 c1 3c 9e 44 e0 3c 6d b7 d0 3e 9c 9d 40 3e
       0.023661798 0.02737647 0.40764943 0.18810123
000300 fb db 24 3e fe 79 cb 3d 19 d2 05 be 9a be 3a bf
       0.16099541 0.099353775 -0.13068427 -0.72947085
000310 da b5 6c bf 69 85 8c bc c0 a2 03 3f b6 b2 64 3d
       -0.92464983 -0.017153459 0.5142021 0.055834495
000320 71 fa 14 be c7 5d 87 3e 4d aa 5c 3e e7 41 35 bf
       -0.14548661 0.26438734 0.2154934 -0.70803684
000330 d0 3f 8c be cb 39 81 be c8 01 c3 bc 92 c3 a7 3e
       -0.27392435 -0.25239405 -0.02380456 0.32766396
000340 cb fb 80 be 8c 97 33 3c f9 27 14 be d7 e7 33 3e
       -0.25192103 0.010961425 -0.14468373 0.17568909
000350 96 67 97 3c ed a4 7e 3d fe 2a 13 bd 38 01 14 bd
       0.01848201 0.062169004 -0.035929672 -0.036133975
000360 6b ee 17 3d c1 f2 e6 bf 8b 6e 28 3e bd af 14 3e
       0.037092607 -1.8042833 0.16448419 0.14520164
000370 c8 18 8a 3e 75 84 03 3f 24 ab 8a be 82 05 c5 be
       0.26972032 0.5137399 -0.27083695 -0.38480765
000380 1a ad f9 3d 7b 02 3e 3e bf e9 a3 be 32 86 8c 3e
       0.1219122 0.18555634 -0.32014272 0.27446133
000390 5e 1f 3c be fb 5f f8 bd 91 e1 1c 3e 43 7d 43 3e
       -0.1837134 -0.12127682 0.15320422 0.19090752
0003a0 5d b4 b3 3d 79 27 2f bc 93 ae 28 3d 69 c7 3d be
       0.08774636 -0.010690563 0.041182112 -0.185331
0003b0 44 80 b6 be 1c 50 94 be c6 1d fd 3d b3 1a 21 be
       -0.35644734 -0.2896737 0.123591945 -0.15732841
0003c0 5f ad b3 3e b8 da 1a 3d b0 a0 5a 3d 27 5b 91 3e
       0.3509321 0.037806243 0.0533759 0.28389856
0003d0 cd bb 19 3d 64 3a ab be 59 69 9c be e5 9d 82 be
       0.037532616 -0.33442986 -0.30549124 -0.2551109
0003e0 60 d7 b5 3e 78 15 78 3e 06 43 a1 bf d4 5e f8 3e
       0.3551588 0.2422694 -1.2598579 0.48509848
0003f0 48 22 e0 bd c0 8a 00 c0 f2 23 a5 bb 06 36 ef 3e
       -0.10944039 -2.0084686 -0.0050396854 0.46720904

l2.bias f4 [50]
000000 ce e6 65 3e 6a 87 3b be 91 78 87 bd 64 ef 1f be
       0.22451326 -0.18313375 -0.06614793 -0.15618664
000010 42 ce 97 3b 70 22 e3 bd 5c 71 eb bc 8c 47 34 3e
       0.004632742 -0.11090553 -0.028740577 0.17605418
000020 37 59 2f bc 1e 9b 9b 3e 3d bf 6a 3e 14 76 51 3e
       -0.010702423 0.30391783 0.22924514 0.204552
000030 0f ff 2a be 71 59 ca 3d b8 9a a3 bd 85 a3 c6 3c
       -0.1669886 0.09880341 -0.07988495 0.024247894
000040 84 d4 b2 3e 57 54 a5 3d 04 5d 0c 3e 26 54 c3 3e
       0.34927762 0.08072727 0.13707358 0.38150138
000050 e3 4b 98 bd ac 4e 90 3d bc 16 a5 3e 8d 64 6c be
       -0.07436349 0.070462555 0.32243907 -0.23085232
000060 2e 82 0c 3e 90 15 4c 3f 19 74 70 3e 62 d7 93 3e
       0.13721535 0.797204 0.23481788 0.28875262
000070 50 b0 aa 3e 81 fe 80 3d a1 b1 02 3f d5 bc a3 bd
       0.3333764 0.06298543 0.5105229 -0.07995001
000080 03 0b f1 3d ff b9 4e 3e 8c cb 5e bd 41 c5 5d 3d
       0.117696784 0.2018814 -0.054393336 0.054143194
000090 a3 f7 1a 3f 7e f7 39 bd 67 57 9d bd 2c 8b ae 3e
       0.60534114 -0.045402043 -0.07682686 0.34090555
0000a0 d2 cb fa bd 70 16 8c bc 78 9f 3a bd 5e 64 82 bd
       -0.12245907 -0.017100543 -0.045562238 -0.063668
0000b0 e5 fb bc 3d 1b a8 4f 3d 7c 35 c0 3e 5e 5d 95 bd
       0.092277326 0.050697427 0.37540805 -0.07293199
0000c0 c4 ea 71 3e c5 70 0f 3f
       0.23624712 0.5603145

l3.weight f4 [50, 50]
000000 25 8f 35 3c 2d a0 fa 3a 57 cb 3e be 89 bb 71 bd
       0.011081492 0.0019121222 -0.18632255 -0.059016738
000010 03 33 d3 bb da 92 34 bd 3f b0 13 be d0 f8 a0 3d
       -0.00644529 -0.04408536 -0.14422701 0.07859957
000020 d7 9d 09 bc 3f 18 43 be a8 06 18 3d 0a 5e e1 bc
       -0.008399448 -0.19052218 0.037115723 -0.027510662
000030 cf 9c fe bd 93 ca 13 3d 99 ad fe 3c 88 6d 47 bd
       -0.124322526 0.03608186 0.031088637 -0.04868844
000040 9d 50 75 3d 9e b5 c7 bd 12 2d 12 be 7b 3b b1 bd
       0.059891332 -0.097514376 -0.14275005 -0.08653923
000050 40 c7 ac 3d 5a 67 55 3d 62 d0 c9 3c ac 5e 20 3d
       0.084364414 0.052100517 0.024635497 0.039152786
000060 1c 3b b8 3d 5a dc 64 3d 0b 40 0c be 60 64 64 3d
       0.08995649 0.055874206 -0.13696305 0.055759788
000070 6d f8 2a be d8 38 3d 3c 65 71 44 be c0 2e 16 be
       -0.1669633 0.011549197 -0.19183882 -0.14666271
000080 78 58 24 be bc ec 8a 3d 76 92 c2 bd e2 e3 c2 3c
       -0.16049373 0.06783435 -0.095005915 0.023790304
000090 51 92 6b bc 47 54 5c 3d 99 c1 90 bc 92 7e b4 3d
       -0.014378146 0.05379131 -0.01767044 0.08813204
0000a0 ed 43 1d be f2 7f ff 3d 06 40 8a 3c 59 f9 f7 3c
       -0.15357943 0.124755755 0.016876232 0.030270265
0000b0 2f b2 56 3c 98 96 e8 3d ca 7f a0 3d 02 37 3a be
       0.013104006 0.113568485 0.07836874 -0.18185046
0000c0 cf c2 4d be e7 a0 13 be 58 02 e1 3e 00 f8 da be
       -0.20093845 -0.14416848 0.439471 -0.42767334
0000d0 f3 ee f5 be ff 4b a0 be fd c8 c3 be db 95 99 bd
       -0.48033866 -0.3130798 -0.3823928 -0.07499286
0000e0 00 b7 57 3a 20 38 a9 be 30 5b 11 bd a5 a2 df be
       0.0008228868 -0.33050632 -0.035487354 -0.43678775
0000f0 99 0a f7 be ed 03 8e 3d c4 19 7b be 66 36 dc 3e
       -0.48250273 0.069343425 -0.24521548 0.43010253
000100 c6 68 96 be 25 44 b3 be 1a 89 88 bf d4 14 ce bd
       -0.2937681 -0.35012928 -1.066684 -0.100625664
000110 c6 a1 36 3e 45 d1 94 be 55 ea 9e be 7a 57 0a 3d
       0.17835149 -0.2906591 -0.31038156 0.03377483
000120 8d b8 26 be 9a 3b f3 be 57 fe 06 3f ea 32 4f 3e
       -0.16281338 -0.4750641 0.5273184 0.20234266
000130 c0 e7 f3 be 85 c1 ce 3d 42 29 da 3e 19 63 a0 3d
       -0.4763775 0.10095505 0.42609602 0.078314014
000140 61 c4 0c bf 60 3f 72 be db e9 de bd c1 6f c6 be
       -0.5498715 -0.23656988 -0.10884448 -0.38757136
000150 bd 5c 94 bd 37 74 8a 3d 76 1b c5 be e3 4d 7e be
       -0.07244251 0.067604475 -0.38497514 -0.24834399
000160 0b d9 14 be 0d 4a 9b be 8a 3f 0d bf ec b6 0b 3e
       -0.1453592 -0.30329934 -0.5517508 0.13643998
000170 70 c8 cf be 96 bf 98 3d d3 22 4a be 08 c2 98 3d
       -0.4058261 0.07458417 -0.19739847 0.074588835
000180 08 b3 47 be 2b bd 38 be 86 da aa be 85 94 1e bf
       -0.19501889 -0.18040912 -0.33369845 -0.6194537
000190 00 6c 89 3f 9d e1 66 3d b1 ae 20 3c e8 bf fe 3e
       1.0736084 0.056367505 0.009807275 0.49755788
0001a0 f7 19 57 3e da b9 66 3e a9 c7 ed bd a4 2b 70 bf
       0.21005999 0.22531834 -0.11610348 -0.9381659
0001b0 65 a2 99 3d 61 cd b9 bb 7c 75 a1 bd 0e 9a bc 3e
       0.075016774 -0.005670235 -0.078837365 0.36836284
0001c0 b9 83 c8 3d 37 34 10 be 32 47 17 be 43 15 dd bd
       0.09790749 -0.14082418 -0.14773253 -0.10795071
0001d0 91 c5 08 bf 53 33 81 3e 5b 25 16 3f 88 f4 9b 3e
       -0.5342646 0.2523447 0.5865075 0.3046
0001e0 7a 82 e9 3d 7d 5b dd 3e ed 9b c7 3d f4 8e 4b be
       0.114018396 0.43233863 0.09746537 -0.19878751
0001f0 8e 9b 19 3e 98 b8 a3 be bf 55 d2 be 2b ac cd be
       0.15000746 -0.3197677 -0.41081044 -0.40170416
000200 be 3a 1d 3f 03 98 39 be 80 4d 42 3c 40 9f 44 be
       0.6141776 -0.18124394 0.011859298 -0.19201374
000210 6e ed ac bd 1e 27 d0 bd f1 54 c6 3e 62 82 c7 bd
       -0.084437236 -0.10163711 0.3873668 -0.097416654
000220 59 11 22 be 74 20 1c 3f 62 e4 ca bd c1 50 9b 3e
       -0.1582693 0.6098702 -0.09906842 0.30335048
000230 a8 de 18 3f 6a 1f 87 3d 89 50 63 3e 9b cb cc 3c
       0.59714746 0.06597789 0.2219869 0.02499943
000240 85 6b af 3e 4b e1 b4 3d 8e d1 77 3d b2 9f 8d 3e
       0.34261718 0.08832034 0.06050258 0.276609
000250 6e 96 eb 3e 56 ba 4b 3d 94 00 b2 3e 88 5e b3 be
       0.46013206 0.04973825 0.34766066 -0.3503306
000260 aa 1d 2f 3e 34 9f 9f be 6e a3 f6 3d ca ee 48 3f
       0.1710116 -0.3117615 0.120428905 0.78489363
000270 90 22 d8 bd 59 79 85 be 0e 34 56 3c 8f 05 30 3d
       -0.10553467 -0.26069143 0.013073934 0.04297405
000280 6e f1 de be ff 39 a3 3e 47 e8 25 bf b0 00 af be
       -0.4354357 0.31880185 -0.6480755 -0.34180212
000290 8b a2 41 be bc 7a 57 be bc cc 07 bf ab c8 08 3f
       -0.18909661 -0.21042913 -0.53046775 0.53431195
0002a0 89 61 af 3e 70 37 1f 3e e8 79 b8 bd 06 22 2d be
       0.342541 0.15548491 -0.09007627 -0.1690751
0002b0 23 53 c1 3e f7 ff f3 be db 7d e2 bd 51 d3 e9 3d
       0.3775874 -0.47656223 -0.11059161 0.114172585
0002c0 20 5b a1 be 7e 14 c9 3d 79 27 08 3f 93 eb e4 3d
       -0.31514835 0.09818362 0.5318523 0.11177745
0002d0 33 85 e1 3c b5 3a d6 3e 4d 28 c6 be 8d 54 87 be
       0.027529335 0.41841665 -0.38702622 -0.26431695
0002e0 d7 46 c4 be 5c f2 0f 3e 73 72 09 3c 14 94 b5 3e
       -0.38335297 0.14057297 0.008389103 0.35464537
0002f0 ca 34 86 bd 69 4e e1 3e 48 81 74 3e d9 e4 66 bd
       -0.065530375 0.44005135 0.23877442 -0.05637059
000300 43 08 20 be a5 0a 5c bc 97 85 11 3f b3 84 b8 3d
       -0.15628152 -0.013430272 0.56844467 0.09009685
000310 1b 08 8f bd 45 43 29 bc 22 5f ab 3d ad 9a 20 3e
       -0.06983968 -0.01033098 0.083677545 0.15684004
000320 06 6e f2 3d 25 d3 21 3d 91 60 5b bd e9 a1 0f be
       0.118373916 0.039508004 -0.05355889 -0.14026608
000330 f7 83 d5 3b c5 07 bb 3d b1 b1 04 3e 7c 79 70 bd
       0.0065159756 0.09132341 0.12958409 -0.058709607
000340 52 6e 4c bd 92 5c 8b bd 9a 42 00 bd aa 7b e7 bd
       -0.049909897 -0.06804766 -0.031313516 -0.11302884
000350 cd 06 06 be dc e9 a2 3d 26 5d 17 be bb 23 37 3c
       -0.13088532 0.079547614 -0.14781627 0.011177952
000360 ef c4 e0 bc 14 9a 27 bd 2d a7 98 bd 45 96 c8 3c
       -0.027437655 -0.040918425 -0.07453761 0.024485717
000370 16 3d f1 bd 4f 38 cb 3d 36 62 26 be d1 c3 b9 3d
       -0.11779229 0.099228494 -0.16248402 0.09070552
000380 a9 02 97 bd 78 df cf 3b c7 ae 8b 3d 8b 7e e5 bd
       -0.07373554 0.006343778 0.068204455 -0.11205777
000390 12 fa 53 bc f5 7b 95 bd 7a 58 35 be 7a 71 9f bd
       -0.012938039 -0.072990336 -0.17709532 -0.07785316
0003a0 68 3a ca 3d d8 59 c8 bd 6c b9 8a 3d ac d2 c1 bd
       0.09874421 -0.09782761 0.06773648 -0.094640106
0003b0 a3 5f 25 be bf f0 f8 bd f3 75 12 3d ce 6c f4 bd
       -0.16149764 -0.12155294 0.035757016 -0.11934815
0003c0 3b 6f 04 bd af 9a ef bd d4 5e 0a 3e 65 11 02 3e
       -0.03233264 -0.116994254 0.13512737 0.12701948
0003d0 e2 51 27 3d 1a 68 fc bd 5c 1a e2 bd 11 c0 19 bd
       0.040849574 -0.12324543 -0.11040184 -0.037536684
0003e0 bd ba c4 3d 57 22 df bd 3f c5 c7 be 11 79 d0 bf
       0.0960593 -0.10895222 -0.39017674 -1.6286947
0003f0 92 18 09 c0 a8 f5 09 be 5b 68 37 bf 62 88 4c 3e
       -2.1421247 -0.13472617 -0.7164361 0.19973901

l3.bias f4 [50]
000000 00 10 1b 3c 15 cd 70 be 40 b6 ae bd b2 29 f1 bd
       0.009464264 -0.23515733 -0.08530855 -0.11775531
000010 a7 cc 1c be 78 a2 0f 3f 59 b1 db bd 16 62 c1 be
       -0.15312444 0.5610728 -0.10727186 -0.37770146
000020 9a 7d c0 3c c0 c2 59 be 77 7d 66 be dd 1d d4 bd
       0.023497391 -0.21265697 -0.22508799 -0.103572585
000030 38 af 3b be f0 e8 80 be 22 a1 a1 be cf 48 a3 3d
       -0.1832856 -0.25177717 -0.31568247 0.079728715
000040 60 5b 66 3f 0a c6 09 3d 10 c1 d9 bd e2 63 91 bd
       0.8998318 0.03363613 -0.10632527 -0.07099129
000050 e5 4b 0d be f2 86 a3 3e 63 a1 e7 3e a2 50 8a be
       -0.13798483 0.31938893 0.45240316 -0.27014643
000060 e4 28 d2 be 8d 77 09 be 2f 12 d3 bd bd 50 0d be
       -0.41046822 -0.13424511 -0.103062026 -0.1380033
000070 2d ad e8 3e 34 12 5e be 5e 0d 5b 3e 38 81 00 3f
       0.45444623 -0.21686631 0.21391818 0.5019717
000080 9b fc 0a 3f b7 89 2c be 2b 83 c9 3e b9 c2 85 3d
       0.54291695 -0.16849409 0.39357886 0.06531281
000090 1f 23 da bd 08 3a 2a 3f d6 3d 11 be 10 1d af 3e
       -0.1065123 0.664948 -0.14183745 0.3420186
0000a0 f7 bd fa 3e 13 9a 12 3e 0b 75 dc bc 92 a3 cb be
       0.48973057 0.14316587 -0.02691128 -0.39773232
0000b0 8a 94 a4 3e 9a e2 0d bb ee 21 02 bf 95 ee 94 3d
       0.32144576 -0.0021649958 -0.5083302 0.072720684
0000c0 eb 5b 93 3f 9e f8 5b 3f
       1.1512426 0.85926235

l4.weight f4 [6, 50]
000000 c8 bc 2f bc 74 71 5c be 22 a0 31 be 41 c8 2f be
       -0.010726161 -0.21527654 -0.17346242 -0.17166235
000010 91 13 1e 3d 7e 2f 5b 3f 31 b8 9e 3c b7 38 03 bf
       0.03859288 0.8561934 0.019374939 -0.51258415
000020 af 4b 4a 3d f0 bd da be 06 17 1f be 1d 17 45 3f
       0.049388584 -0.42723036 -0.15536126 0.76988393
000030 d3 b9 5b 3d 8a 0b 33 3f de c7 34 3d d0 b1 0a 3c
       0.053644013 0.6993948 0.04413592 0.008465245
000040 e6 72 72 3e 1f a1 a1 3f 66 20 25 bf e9 6a 9f be
       0.23676643 1.2627295 -0.6450256 -0.31136253
000050 66 5e 61 3e b1 23 ca bd 0e a3 bf 3d a7 17 a5 be
       0.22008666 -0.09870089 0.09357272 -0.32244608
000060 69 46 46 be 96 d9 c6 3d 90 08 f5 bd 19 1f b1 3d
       -0.19362797 0.0970947 -0.11964524 0.086485095
000070 f2 ff 73 bf 91 a1 9a 3e b2 e0 74 be bb 78 5d 3f
       -0.95312417 0.3020139 -0.2391384 0.86512345
000080 cc 37 ae bc cf ba b4 bb 11 62 21 bf 44 86 01 be
       -0.02126684 -0.0055154334 -0.6304026 -0.12648875
000090 6e 66 42 3d df 96 8e 3d 42 3e 29 3d 52 1c 21 bd
       0.047460966 0.0696237 0.04131914 -0.03933365
0000a0 98 a8 bb bd 61 08 ac be f9 93 88 be 92 c2 05 3f
       -0.09163016 -0.33600143 -0.26675394 0.52250016
0000b0 69 5d 81 bf 17 27 e5 bc 3d d3 16 bf a4 4a 17 3f
       -1.0106632 -0.027972741 -0.58916074 0.5909827
0000c0 06 05 3e 3f ba eb 25 3e 6b 1e 06 3d 7f 4c ef 3e
       0.74226415 0.16203204 0.032743853 0.4673805
0000d0 16 e6 34 3d 5c 7b 12 be 71 46 12 3b ff b8 8b be
       0.04416474 -0.1430487 0.0022319818 -0.27289578
0000e0 11 30 f9 3a ae ff 38 3e 8f fe 8d bd 25 0b 63 bf
       0.0019011517 0.18066284 -0.06933319 -0.8868888
0000f0 34 a7 42 bc cc c7 ae be 6b 2c da 3d 4d 85 9c bf
       -0.011880685 -0.34136808 0.10653003 -1.222818
000100 c9 4b 27 3f 28 04 bc 3c 0e c3 f0 3c c2 61 1d bf
       0.65350014 0.0229512 0.029389884 -0.6147729
000110 c7 e7 a8 bc 4a dc ca bd 21 d9 9a be 44 e4 6f 3e
       -0.020618333 -0.09905298 -0.3024378 0.2342692
000120 b9 20 3b be d4 03 09 bf 5c a3 81 bf 50 87 93 bc
       -0.18274201 -0.53521466 -1.0127978 -0.018008858
000130 c6 67 58 bd e3 02 cf 3d 38 30 d6 be 23 fe 15 bf
       -0.05283334 0.101079725 -0.41833663 -0.58590907
000140 b6 10 06 be 4e e1 5d bf d8 5f 2e be 33 ca cd 3d
       -0.13092312 -0.8667191 -0.17028749 0.10048332
000150 aa 69 35 bf 4d 1d 9b 3d 6f 35 fa 3e 82 76 16 bd
       -0.70864356 0.07573948 0.48868892 -0.03673411
000160 c9 c8 23 bf 09 1a 72 be c5 57 bd be 6b e8 c8 bd
       -0.6397825 -0.23642744 -0.36981025 -0.09809955
000170 aa 0e bd 3e 6a 7f e9 bd 89 d2 b8 be dc c8 e5 bc
       0.3692525 -0.114012554 -0.36098126 -0.028049879
000180 5f 79 10 3e bd dc 2d be 10 67 be 3e a2 3f e1 3f
       0.141088 -0.16978736 0.37188005 1.7597544
000190 ee 3b d4 3c 85 c5 05 3e 61 e6 e1 bc e9 81 d6 be
       0.025907483 0.13063629 -0.027575674 -0.4189599
0001a0 aa ef 27 3d 7a 5e 83 3f f7 32 15 bd 88 fe f6 bd
       0.041000046 1.0263207 -0.036425557 -0.12060267
0001b0 68 5d c1 3d 2d a6 92 3e 41 3b 70 3d a8 38 5b bf
       0.09441644 0.28642407 0.05865026 -0.85633326
0001c0 da 33 92 bd 4d 50 8e 3d cd 14 27 be 17 88 2e bd
       -0.07138796 0.0694891 -0.16316529 -0.042610254
0001d0 af f7 08 40 e8 93 3e bf d9 66 6d 3e 13 69 bf bc
       2.1401174 -0.7444444 0.23183765 -0.023365533
0001e0 10 36 16 3f 0b 85 43 be 3d 7a fc bd 43 a5 fc be
       0.5867624 -0.1909372 -0.123280026 -0.49344835
0001f0 54 8c 08 3f 75 41 84 bc 39 75 5b 3d 7f 5c 7c 3c
       0.53339124 -0.016144494 0.05357859 0.015402912
000200 c5 17 3e be 62 b2 9a 3e 66 2d 96 3d fe f1 80 bf
       -0.18563755 0.3021422 0.07332878 -1.007385
000210 41 d2 e8 be fa be af bd 2a 36 08 bf 5e 21 d5 bd
       -0.4547291 -0.08581348 -0.5320765 -0.10406755
000220 18 a6 17 bf 05 23 a1 be 3b 38 22 3d d2 42 eb be
       -0.59237814 -0.3147203 0.039604407 -0.45949417
000230 f9 82 e2 3d 2d 75 c7 be 36 07 9a 3d 35 20 5f be
       0.11060137 -0.38956586 0.075209066 -0.2178963
000240 8e 72 06 3f 82 68 b3 bd d4 98 32 bd eb 30 dc be
       0.52518547 -0.08760168 -0.04360278 -0.4300607
000250 03 a9 96 3e 56 f6 1a bf f0 5f cb 3d b5 d1 ca be
       0.2942582 -0.6053213 0.09930408 -0.3961312
000260 e5 7b 1d bf 98 92 1d be d7 a3 b5 3d fe 5b 69 bf
       -0.61517173 -0.15387952 0.088691406 -0.91155994
000270 3d e1 04 bd 35 a0 19 3f 68 23 b9 3c 1a 28 3f 3e
       -0.032441366 0.6001008 0.02259989 0.18667641
000280 d6 8b ba 3b a9 40 df bd 7f 39 6e bd f2 13 09 3e
       0.0056929393 -0.10901005 -0.0581603 0.13386515
000290 04 f0 97 be 2a 52 79 3c 87 be 9c 3b 9e 26 25 3e
       -0.29675305 0.015217343 0.004783455 0.16128013
0002a0 55 c1 ba 3c ce 81 a7 be 16 a7 04 3e 13 cd 79 be
       0.022797266 -0.3271622 0.12954363 -0.24394636
0002b0 11 50 a8 be f0 35 84 3e 4c f1 9f be 81 5f a1 bd
       -0.32873586 0.258224 -0.31238782 -0.07879544
0002c0 f0 df db bd 99 f1 1b bd 56 fc ab 3f 66 11 28 3e
       -0.10736072 -0.038072202 1.3436382 0.16412887
0002d0 24 aa a1 be 53 71 14 be 89 1f 76 3d f2 d6 05 bd
       -0.3157512 -0.14496355 0.060088668 -0.03267569
0002e0 c0 77 ba be a7 75 44 bc 55 ba 74 bf ef f0 33 be
       -0.36419487 -0.011990941 -0.9559682 -0.17572378
0002f0 57 5b cc 3e df 40 b5 bd 19 fc 28 be cb 30 95 3d
       0.39913437 -0.08850264 -0.16502418 0.07284697
000300 3b e6 25 bf 50 84 3d bf 77 88 92 bf 75 92 2a be
       -0.6480443 -0.7403002 -1.1447896 -0.16657431
000310 ee c3 0a be 89 08 4c 3d 07 9a 8b 3f 99 54 1b 3e
       -0.13551304 0.049812827 1.090638 0.1516899
000320 69 15 bb bd 73 fd 28 3f 02 ec 7f be fb 4e 7d 3e
       -0.09134943 0.6601173 -0.24992374 0.2473716
000330 b9 b0 27 bc 4c 7c a4 3d bc 70 84 3d 02 45 62 3a
       -0.010235005 0.0803152 0.06466815 0.0008631499
000340 f8 a3 25 bb 62 b0 84 be 70 54 06 bd 49 85 ac 3d
       -0.0025274735 -0.2591582 -0.03279537 0.084238596
000350 82 61 e4 3d b9 57 6a 3e 7e 8b 43 be 85 ad ba bc
       0.11151411 0.22885026 -0.19096181 -0.022787819
000360 c7 b0 0b 3f dd 91 1e 3e 63 29 87 be 64 00 da 3d
       0.54566616 0.1548533 -0.26398763 0.10644606
000370 5b 50 97 3e 56 ce a3 be ba 67 95 be 95 e9 ce be
       0.29553494 -0.3199336 -0.291807 -0.40412584
000380 e3 41 a2 be fe e5 31 bd c3 4c 1b bd 56 6b 88 3d
       -0.31690893 -0.04343223 -0.037915003 0.06661098
000390 d9 dd e4 bd 40 d3 f2 be 81 63 89 be 03 3c f1 bc
       -0.111751266 -0.47426796 -0.26833728 -0.029447561
0003a0 3b 82 03 bf 0f 66 4a bd c3 d6 e3 3f 7e 0b 21 bd
       -0.5137059 -0.049413737 1.7799915 -0.0393176
0003b0 4d 9c e7 be 0d d3 e0 be 7e c0 d7 be b4 76 23 be
       -0.45236436 -0.4391102 -0.42139047 -0.1596325
0003c0 6e c0 da be 2f eb 07 be 7b 23 0d be 2e 71 2b be
       -0.42724937 -0.13273309 -0.13783066 -0.16742393
0003d0 3c 62 fd be 27 04 64 3c 2c 2a 89 3e 53 ac fc 3e
       -0.4948901 0.013917006 0.26789987 0.49350223
0003e0 04 19 fe 3e f5 43 01 3e df 53 d9 3d b1 2a 01 bf
       0.4962846 0.1262358 0.106117 -0.50455767
0003f0 40 9e 91 3e 4e c0 76 3e bb 91 98 bd aa 2d c5 bd
       0.28441048 0.24096796 -0.07449671 -0.0962785

l4.bias f4 [6]
000000 7e 1c 96 3e 27 7a 71 bd 97 a4 82 be f8 1e 2d 3e
       0.29318613 -0.058954384 -0.25516197 0.16906345
000010 20 f0 1b c0 8b f7 97 bf
       -2.436531 -1.1872419

emb.weight f4 [500, 6]
000000 3b 27 d4 3e a2 0f 2a bf a4 29 21 bf 17 8c 07 c0
       0.4143618 -0.66430104 -0.62954164 -2.1179254
000010 86 a2 cc bf c4 26 19 bf e9 8c e1 bf 1b d8 01 bf
       -1.5987098 -0.59824777 -1.7621127 -0.50720376
000020 d4 53 55 3f 87 e8 9d 3e 5d dd cb bf 29 f6 bd be
       0.83331037 0.30841467 -1.592693 -0.37101868
000030 10 ad 04 c0 05 b7 19 bf 1c f7 6c 3f 87 49 cf be
       -2.073063 -0.6004489 0.9256456 -0.40485784
000040 bd 20 25 c0 ca ec af 3e dc 47 18 3f 37 da fb bf
       -2.5801232 0.34360343 0.5948465 -1.9675969
000050 3b b1 95 bf 2d 5b 40 3f 32 d4 63 bf e7 db 05 bf
       -1.1694711 0.75139123 -0.8899566 -0.5228867
000060 21 db 3e 3e 11 c6 6d bd 1e 22 55 3f 2b 51 24 be
       0.18638279 -0.05805022 0.83255184 -0.16046588
000070 b6 42 c5 3f 44 15 79 bc cb 73 18 40 1b 77 cb 3f
       1.5410984 -0.015202824 2.3820674 1.5895723
000080 19 43 63 bf bb e8 8b bd 0d bb 68 bf f5 a4 11 3c
       -0.8877426 -0.06831499 -0.90910417 0.0088894265
000090 a6 fa 5a 3f ef c1 2c 3f 7f 59 48 be 2e f4 ba be
       0.8553871 0.6748342 -0.1956539 -0.3651442
0000a0 e5 e1 47 be 72 df 78 3f 42 72 37 3e 14 d3 35 3f
       -0.19519766 0.9721595 0.1791468 0.71025205
0000b0 9c f7 a3 be 3d 10 85 3e 52 12 53 be 38 85 0c be
       -0.32024848 0.2598895 -0.20612457 -0.13722694
0000c0 76 5f 6f bf e5 d4 d3 bd b8 c4 9c 3f ab ee 49 3f
       -0.93505037 -0.10343341 1.2247534 0.78879803
0000d0 a5 2c a7 3e ba c0 3d bf 66 d4 4e bf ab 82 66 be
       0.3265125 -0.741222 -0.80792844 -0.22510783
0000e0 02 8e 41 bf 63 50 8e 3e c7 9f bf bc c5 8f de bf
       -0.7560731 0.27795705 -0.023391617 -1.7387625
0000f0 81 45 02 c0 39 3e 9c 3e d3 1e 0f c0 95 8f 34 bf
       -2.0354922 0.30516222 -2.2362564 -0.7053159
000100 c1 0e 7b bf 5e 3f af be f4 d7 bc 3f f6 b5 44 bd
       -0.9806939 -0.34228033 1.4753404 -0.048025094
000110 0b 42 52 be 22 b3 95 3e 93 8d 0e 3f 9d 64 e3 3e
       -0.20533006 0.2923823 0.55684775 0.444127
000120 a1 fb cc 3e 88 a6 81 3f 9c 66 98 3f c8 7d 8d 3e
       0.40035728 1.0128946 1.1906314 0.27635026
000130 ce 77 08 3f b8 bd af be f2 36 2c bf 3c 91 b6 3e
       0.5330781 -0.3432443 -0.6727134 0.3565768
000140 46 cb 7f bf 1a ae 18 3e 69 69 28 3e 10 f2 84 3f
       -0.99919546 0.14910164 0.16446461 1.0386372
000150 98 55 2a bf ba b2 c3 bf 40 97 d1 3e ed 4b 18 3e
       -0.66536856 -1.5288918 0.40935707 0.14872713
000160 ca ee 32 bd 76 a2 d8 bf 58 dd fe 3e 0a 40 55 bf
       -0.04368476 -1.6924579 0.49778247 -0.8330084
000170 58 99 32 bf ce 2f 88 bf 0d 21 2f 3f 06 71 2a bf
       -0.69765234 -1.0639589 0.68409806 -0.6657871
000180 4d 05 09 c0 be 64 89 3f e8 2a 0b 3f 6d a2 40 40
       -2.1409485 1.0733869 0.54362345 3.0099137
000190 68 c8 9a 3f e0 7a 98 3f ad fc e5 3f f1 00 a2 bf
       1.2092409 1.1912498 1.7967736 -1.2656537
0001a0 4d 57 b3 3f 5e d2 a2 be cc e8 21 3e 93 17 88 3f
       1.4011017 -0.31801122 0.15811461 1.0632194
0001b0 90 b7 19 c0 6c 03 ce 3f 6d 47 b5 3e 29 07 d1 3f
       -2.4018288 1.6094794 0.35406056 1.633031
0001c0 03 aa d8 bd 94 63 65 3e 8c bc c2 3f 99 57 95 be
       -0.10579302 0.22401267 1.521379 -0.29168394
0001d0 8b e9 18 3f 30 f2 18 bf 17 6b b4 bf a3 79 cb 3f
       0.5973136 -0.5974455 -1.4095181 1.5896496
0001e0 f7 f2 2b bf 51 b3 ac 3e 79 28 51 3f 1a 9f 6e bf
       -0.6716761 0.33730558 0.8170238 -0.9321152
0001f0 db f4 02 bf 53 65 9b be 60 30 ad 3e e0 f2 86 3e
       -0.5115487 -0.30350742 0.3382597 0.26357174
000200 60 6f 70 bf 1a a8 01 bf b2 6c 55 be 9b f7 c2 3f
       -0.93919945 -0.5064713 -0.20842245 1.5231813
000210 5c 2d a0 3e d3 ba 00 bf af 65 c8 bf a7 70 cc 3c
       0.31284606 -0.5028507 -1.5656031 0.02495606
000220 11 1a a9 3e 79 bd d1 3f c5 0e 5e 3f 3a c2 16 bf
       0.330277 1.6385947 0.86741287 -0.58890116
000230 c6 b1 f5 bd 00 e6 9f 3d 78 2e 02 3f ad 21 fc 3e
       -0.11996798 0.07807541 0.50852156 0.49244443
000240 cf 8a a2 3f 90 58 2f 3f 2f 4b 4a bf 22 41 ee be
       1.2698611 0.6849451 -0.7902097 -0.46534067
000250 c3 5f 1d 3e 04 59 8b bf 71 aa e5 3f a9 a6 09 c0
       0.15368561 -1.088654 1.794264 -2.1507971
000260 5d 8c 9e 3e 13 2d f2 3f 6e 92 71 3f ba 11 72 3f
       0.30966464 1.8920006 0.9436406 0.945583
000270 9a bd 6f 3f 0c b8 54 3f ce 06 a1 bd ee ef b3 be
       0.93648684 0.83093333 -0.07862626 -0.3514399
000280 53 bd 72 be 5a ef 61 3f ca de 96 be 4f cf 52 3d
       -0.23705034 0.88255847 -0.2946685 0.051467236
000290 d2 8d 87 bf d1 3b 16 bf 1f 83 17 bf e9 2a 5f bf
       -1.0590155 -0.5868502 -0.5918445 -0.8717485
0002a0 ac bb e0 be 68 23 6a 3f d3 71 3b 3f ef 23 08 bf
       -0.43893182 0.91460276 0.73220557 -0.5317983
0002b0 0d d0 01 3e 3b 20 a9 be d3 bf 23 3f 83 9b 93 3f
       0.12677021 -0.33032402 0.63964576 1.1531833
0002c0 61 84 cc 3d 40 44 c2 3e 4d 66 8a be fa 0a 89 3f
       0.09986187 0.37942696 -0.27031174 1.0706475
0002d0 86 2d f8 bf 08 ff c7 be e3 e8 ee be d9 ab a8 3f
       -1.9388893 -0.3906176 -0.46662053 1.3177444
0002e0 dd 98 2e 3f f7 7c c5 be 83 f8 f1 bf 07 9d a9 bb
       0.68202 -0.38571903 -1.8903965 -0.00517619
0002f0 33 d0 5e be b8 98 ab bd 37 94 8f 3d 72 97 88 bf
       -0.21759109 -0.08378738 0.070106916 -1.0671217
000300 0e 05 b6 3d 7b 74 a5 3f 55 26 9d 3f b0 c3 b1 3e
       0.08887683 1.2926172 1.2277323 0.3471961
000310 e5 b4 ab 3f bf 0e 6f 3f 2a c9 92 bf df 72 50 bf
       1.341458 0.93381876 -1.146764 -0.8142528
000320 96 b3 94 be c5 b7 28 bf 43 fb 67 3e de b0 87 bf
       -0.29043263 -0.6590541 0.22654442 -1.060085
000330 5d 02 0c bf d7 00 3e 3f dc c1 71 bf 09 f5 30 be
       -0.54691106 0.7422003 -0.9443643 -0.17280973
000340 62 16 9c bd b9 29 f1 3f b7 bc cf 3f 6c 3f a5 be
       -0.07621457 1.8840858 1.6229466 -0.3227495
000350 7c 8d 4e be b2 73 72 3f 3a 64 67 bf 22 d5 a9 be
       -0.2017116 0.9470779 -0.9038731 -0.3317042
000360 62 af b5 be 4f 62 c9 bd 9f 6f 9b bf c4 00 cd 3f
       -0.3548537 -0.09833204 -1.2143439 1.6015859
000370 a0 09 86 3f 19 87 30 bc b3 50 ee bd 0e 84 31 3f
       1.0471687 -0.010774397 -0.11636486 0.69342124
000380 5f d6 ee 3e af 27 f5 be 1a 06 d3 3e b7 ea ac 3f
       0.46647927 -0.4788184 0.41215593 1.3509129
000390 7f 85 a6 3f f2 20 e0 3e 4b 3d 52 bf be 1a 24 bf
       1.300949 0.43775135 -0.82124776 -0.64103305
0003a0 5b cd 76 bf 4f 15 a3 3e 58 e9 1f 3e d7 0b aa 3f
       -0.964071 0.31852195 0.15616357 1.3284863
0003b0 86 fb d1 bf 0c 0d c3 3f cd e2 92 bf 0d c2 22 bf
       -1.6404884 1.5238357 -1.1475464 -0.6357735
0003c0 ac b9 09 40 2c 5f 18 40 f5 b1 e2 3f a8 4d cd 3f
       2.1519575 2.3808088 1.7710558 1.6039324
0003d0 27 ae 87 bf dd 58 d5 be 73 43 8e bf 76 17 d3 bf
       -1.0600022 -0.4166936 -1.1114334 -1.6491535
0003e0 44 c2 14 be 9c f9 7e 3e 4d 00 f6 3e a2 f2 30 bf
       -0.14527231 0.24899906 0.48047104 -0.6912023
0003f0 5e ec a9 3f 03 3c 6f bd a5 5b 8a be f1 f6 ae 3f
       1.3275259 -0.05840684 -0.27023044 1.366911
